models/network_model.pth (torch, 3460 bytes, 5 tensors)

fc1.weight f4 [16, 4]
0	0x3ece5522	0.40299326
1	0x3f025226	0.509066
2	0xbe096aab	-0.13419597
3	0x3ef70bf0	0.48251295
4	0xbc2d74c0	-0.010586917
5	0x3bf1b511	0.007376321
6	0xbeb5765c	-0.35441864
7	0x3ecfc295	0.40578142
8	0x3f03dc1f	0.51507753
9	0xbeebe7d0	-0.46075296
10	0x3ebb0ac3	0.36531648
11	0x3e2aaa49	0.16666521
12	0x3ee098dd	0.43866625
13	0xbc0d2fb7	-0.008617333
14	0x3e31bfbe	0.173583
15	0xbabe0a7c	-0.0014498974
16	0x3ee3afaa	0.4446996
17	0x3bef4db1	0.0073029627
18	0xbe86fe9f	-0.26366135
19	0x3e227b7d	0.1586742
20	0xbe0b6ce3	-0.13615756
21	0xbe0e2248	-0.13880265
22	0xbe9a3ded	-0.3012537
23	0x3edb06a4	0.42778504
24	0xbecce6b0	-0.4001975
25	0xbe7d0bdc	-0.24711555
26	0xbe1039ed	-0.14084597
27	0xbe9afa94	-0.302693
28	0x3e030644	0.12795359
29	0xbf062971	-0.52406985
30	0x3ebe2404	0.37136853
31	0xbeb076e9	-0.3446572
32	0x3eb5ae4a	0.35484535
33	0x3def5336	0.11685793
34	0xbe059b96	-0.13047633
35	0x3e8e49f7	0.27790806
36	0x3e173471	0.14766099
37	0x3ea57457	0.32315323
38	0xbca16e14	-0.01970581
39	0xbdaa66d4	-0.08320394
40	0x3e63abad	0.22233458
41	0xbe6b5c61	-0.22984459
42	0x3de7495a	0.112932876
43	0x3f0adfe9	0.5424791
44	0x3e822a5f	0.25422952
45	0xbe2979d5	-0.16550381
46	0x3e9b40dc	0.3032292
47	0x3d9a9e76	0.07549755
48	0x3e97c385	0.29641357
49	0xbeb3c0aa	-0.3510793
50	0xbf0784bc	-0.5293691
51	0xbe22e63d	-0.15908141
52	0xbea5720f	-0.32313582
53	0x3eb710ab	0.35754904
54	0x3db5561a	0.08854313
55	0x3e86b7f2	0.26312214
56	0x3d3c5af7	0.04598519
57	0x3db005a7	0.08594828
58	0x3f00def8	0.50340223
59	0xbeef460a	-0.46733123
60	0x3c9962b0	0.018723816
61	0xbe9b5454	-0.30337775
62	0x3e03c81f	0.12869309
63	0xbe23eb42	-0.16007712

fc1.bias f4 [16]
0	0x3e70ee43	0.2352839
1	0x3bdf7e6f	0.006820492
2	0x3f05ae5d	0.5221918
3	0xbe68f737	-0.22750555
4	0xbe8931bb	-0.26795754
5	0xbe4cd7f5	-0.20004256
6	0x3f11d329	0.5696283
7	0x3dae5c78	0.08513731
8	0x3ee99767	0.45623323
9	0xbefb83c8	-0.4912398
10	0xbecc0097	-0.398442
11	0xbedd19a1	-0.43183616
12	0xbe982af5	-0.29720274
13	0x3e132fda	0.14373723
14	0x3e950727	0.2910702
15	0x3ea706d3	0.32622394

fc2.weight f4 [8, 16]
0	0xbe043474	-0.12910634
1	0xbe4e2731	-0.20132138
2	0x3e07d3f8	0.13264453
3	0xbdcef3e4	-0.10105112
4	0x3e1b5f5c	0.15173095
5	0xbdb89cbe	-0.09014271
6	0x3de36fbc	0.11105296
7	0xbe4f9b92	-0.20274189
8	0xbe09aa84	-0.13443953
9	0x3d9c18c4	0.07621911
10	0x3d587b38	0.052851886
11	0xbd8289f4	-0.06373969
12	0x3e0fdb4f	0.14048503
13	0x3e0f0bfc	0.13969415
14	0xbe39a4f6	-0.18129334
15	0xbe2442ea	-0.1604115
16	0x3ea51fb4	0.3225075
17	0x3c96650a	0.018358726
18	0x3c2fd506	0.010731941
19	0xbe1323ef	-0.14369176
20	0xbd4eb7c1	-0.05046821
21	0x3e2c9bd1	0.16856314
22	0x3d8cd1c1	0.06875945
23	0xbdb34f88	-0.08755404
24	0x3dc3bbdf	0.09557318
25	0xbde6c680	-0.112683296
26	0xbdd975be	-0.10618161
27	0xbd80e263	-0.0629318
28	0xbdfec251	-0.12439407
29	0xbd8c7adc	-0.06859371
30	0x3eb4bcec	0.35300386
31	0x3e1371c8	0.14398873
32	0x3d67f891	0.056633536
33	0xbe82479f	-0.25445268
34	0xbe282254	-0.16419345
35	0xbdaa6c14	-0.083213955
36	0x3c964b38	0.018346414
37	0xbe77b1b9	-0.2418889
38	0xbdef4f21	-0.116850145
39	0xbe194258	-0.14966714
40	0xbc9bf437	-0.01903735
41	0xbdbe8450	-0.0930258
42	0xbc8deaf0	-0.017323941
43	0xbe2d7924	-0.16940743
44	0xbe224c6b	-0.15849464
45	0xbe2b08e4	-0.1670261
46	0xbd92a6b2	-0.07160701
47	0xbe3ca8fa	-0.18423834
48	0x3e9abd34	0.30222476
49	0x3d5a1636	0.05324384
50	0x3e9d099c	0.30671394
51	0x3e30b6a2	0.17257169
52	0xbdfd0362	-0.12354161
53	0x3e8e69e4	0.27815163
54	0x3d09a0b3	0.03360052
55	0xbbe940d7	-0.007118325
56	0xbdf6bf28	-0.12048179
57	0xbe3b1578	-0.18269908
58	0x3e333007	0.1749879
59	0x3c0864d2	0.008324819
60	0x3e3b08b8	0.18265045
61	0xbdd98458	-0.10620946
62	0x3e944d8f	0.28965423
63	0xbdbac200	-0.09119034
64	0x3d601eb6	0.05471679
65	0x3e283034	0.16424638
66	0x3e6bf308	0.23041928
67	0x3e979123	0.29602918
68	0x3ea1dfdf	0.31616113
69	0xbdacd0ea	-0.08438285
70	0x3e27c885	0.16385086
71	0xbcff85cb	-0.031191727
72	0x3d871a95	0.06596867
73	0xbe0b4b39	-0.13602914
74	0x3ea94c78	0.33066154
75	0xbdeecdea	-0.11660369
76	0x3e63e0f6	0.22253785
77	0x3e24baab	0.16086833
78	0x3e1bbdeb	0.15209167
79	0xbcdf3285	-0.02724577
80	0x3e37e37b	0.1795787
81	0x3ba1811c	0.004928721
82	0xbc58eb90	-0.013239756
83	0xbe85b42c	-0.26114023
84	0x3d739139	0.059464667
85	0xbdab6164	-0.08368185
86	0xbe10599d	-0.14096685
87	0x3e52d3db	0.20588629
88	0x3c2c136e	0.010502679
89	0xbe3caf67	-0.18426286
90	0xbe34b362	-0.17646554
91	0xbcfb86c5	-0.030703912
92	0x3dc6e6f4	0.097120196
93	0xbdeb3f93	-0.11486735
94	0xbe1a7a90	-0.15085816
95	0xbdf70873	-0.120621584
96	0xbdc5f780	-0.096663475
97	0x3e40a87b	0.1881427
98	0x3e93c2aa	0.28859454
99	0xbe0ff3dd	-0.1405787
100	0x3e13a18f	0.14417098
101	0x3e6aa767	0.22915421
102	0x3e17a985	0.1481076
103	0x3a92fc46	0.0011214099
104	0x3e5c66d9	0.21523608
105	0x3e40ba4b	0.18821065
106	0x3e48b91b	0.19601862
107	0x3cc4270d	0.023944402
108	0x3c934eeb	0.017981967
109	0x3dfb8b6d	0.12282453
110	0x3d5eac85	0.054363746
111	0x3cb73bdd	0.022367412
112	0x3e833257	0.25624344
113	0x3ea3091a	0.3184288
114	0x3d98a553	0.07453408
115	0x3d282918	0.041054815
116	0x3dcb218d	0.09918509
117	0x3db8a4c5	0.09015802
118	0x3e258914	0.16165572
119	0x3e254c8d	0.16142483
120	0xbe09e6d7	-0.13466965
121	0xbcd2e878	-0.025745615
122	0x3ea28269	0.3174012
123	0x3e2e1247	0.1699916
124	0x3dab8736	0.08375399
125	0xbd5c63d6	-0.05380615
126	0xbd3f35c6	-0.04668214
127	0xbe02e8aa	-0.12784067

fc2.bias f4 [8]
0	0xbde55c8b	-0.11199292
1	0x3e39bfc4	0.18139559
2	0x3e104f04	0.14092642
3	0x3e5a3dc7	0.21312629
4	0xbde18caa	-0.11013158
5	0xbe47d65b	-0.19515364
6	0x3d75c54b	0.060002606
7	0x3eaf346c	0.34219682

out.weight f4 [1, 8]
0	0x3ce8922e	0.028390016
1	0xbe508aac	-0.20365399
2	0x3e04747f	0.12935065
3	0xbe7e60d5	-0.24841626
4	0xbeb2443e	-0.3481769
5	0x3e65c850	0.22439694
6	0xbe8b33fe	-0.27188104
7	0xbe3ab47a	-0.18232909
